src/regression_model.pth (torch, 5154 bytes, 5 tensors)

linear.weight f4 [15, 30]
000000 e0 74 e2 3d 2f 46 4d be 89 26 de bd a3 ba 1c 3e
       0.110574484 -0.20046304 -0.10847194 0.15305571
000010 63 d6 0b 3e d1 80 b5 3d a8 cd aa bd ab 48 5f 3d
       0.13656001 0.088624604 -0.08340007 0.05451266
000020 4d 65 c0 3d 8e 84 8b bd fa 26 d9 3c a1 f1 1d 3c
       0.093943216 -0.06812392 0.026507843 0.009640128
000030 b6 50 19 be 68 38 19 be 89 84 94 3d 86 f7 6c bd
       -0.14972195 -0.14962924 0.072518416 -0.057853244
000040 d0 77 38 be f1 74 0c bd 33 c6 3e bd 32 a5 86 3d
       -0.18014455 -0.03429121 -0.046575736 0.06574477
000050 8a 4a ed bd d0 88 0d 3e 25 2e 63 3d e3 b2 10 be
       -0.11586483 0.13821721 0.05546393 -0.1413074
000060 55 f5 8a 3c 19 95 13 be d2 46 bd bd 2f 1a 2f 3e
       0.016962687 -0.14412345 -0.092420235 0.17099832
000070 d6 54 d2 bc ca 71 80 be cc e7 b1 bd 7a 04 17 be
       -0.025675219 -0.25086814 -0.0868679 -0.14747801
000080 75 3c bf bd f5 bb 07 3c f3 8c 04 bd b1 02 0e bd
       -0.09337703 0.008284559 -0.032360982 -0.034670535
000090 14 20 d7 bd cb 80 7b bc 88 c0 25 be 49 ca 12 be
       -0.10504165 -0.015350531 -0.16186726 -0.14334978
0000a0 49 c6 14 be 2f 02 1c be ee 7f 9d bc 55 43 82 bd
       -0.14528765 -0.15235208 -0.01922604 -0.06360499
0000b0 ef 95 95 3c 69 89 91 3b 60 b2 2a 3d 0d 26 9f 3d
       0.01825997 0.0044414294 0.041674018 0.077709295
0000c0 c9 d2 ec bd 51 00 ee bd 80 8f b2 3d bb 3f 3e 3e
       -0.115636416 -0.11621154 0.08718777 0.18578999
0000d0 71 2d c5 3b 61 39 4d bd 17 fb c7 3d d2 6b 1f be
       0.00601738 -0.05010355 0.097646885 -0.15568474
0000e0 94 d2 c2 bc 83 90 fb bd 1e cd 49 3e 6b 98 83 3e
       -0.023782052 -0.12283423 0.19707152 0.25702223
0000f0 37 55 63 3c 15 c5 25 3b d3 8f a0 bd d0 95 63 bd
       0.013875297 0.0025294472 -0.07839932 -0.055562794
000100 ca bc 51 bd d8 6d c8 3d 1c 83 5b bd 74 27 b8 3d
       -0.051205434 0.09786576 -0.053591833 0.089919
000110 c8 cf 63 3d 8f ee 0b bd 26 c9 80 3b 4b f2 a4 bc
       0.055618078 -0.034163054 0.0039302288 -0.020135066
000120 4e c5 0a bd 8e 9d 84 3c 52 e4 09 3e c7 6b 41 bd
       -0.03387957 0.01618841 0.13466004 -0.047221925
000130 58 e6 97 bd 36 c4 d7 3c 43 68 1b be 39 fd 56 3d
       -0.074169815 0.026338678 -0.15176491 0.052487586
000140 f3 b6 5e bd cc f8 02 bc da 26 c5 3d fe 18 31 be
       -0.054373693 -0.007993888 0.09626551 -0.1729469
000150 ca 50 07 be b9 5c fc bc a6 99 c6 bb 75 77 f2 bc
       -0.13214412 -0.030805932 -0.006060797 -0.029597977
000160 7c 09 9c 3e f4 ca e5 3e 18 9d 8f bd e2 8e 66 3d
       0.30475986 0.44881403 -0.07012385 0.056288607
000170 96 a4 36 3e 35 67 ba bd 3f 49 5d 3e 22 9a 87 bc
       0.17836222 -0.091017164 0.21609972 -0.016552988
000180 2b 06 2b bd cb 6d 05 3c 64 6f 96 bd ab 6d 19 bb
       -0.04175393 0.008143852 -0.07345465 -0.0023411314
000190 04 e8 11 bc 29 fb 2f 3e da 11 58 bd ce c6 c7 bb
       -0.0089054145 0.17185654 -0.0527514 -0.0060966974
0001a0 10 d5 4e bd b8 d7 ce 3d f5 02 51 3a 8a 12 83 bd
       -0.05049616 0.10099739 0.0007973158 -0.064000204
0001b0 eb eb 45 3e 3e 44 8b 3c ea d4 10 3e a9 3c 84 3d
       0.19328277 0.017000314 0.1414372 0.064568825
0001c0 7e a4 96 bc eb 37 7d 3d 75 20 8a 3a 42 d6 0f bd
       -0.018388983 0.061820906 0.0010538237 -0.03511644
0001d0 c5 fd d6 bc 76 c8 8e 3c a3 3c 7d be bb f2 e7 be
       -0.026244054 0.017429572 -0.24730162 -0.45302376
0001e0 5e 60 33 be 0e a9 b5 3d 1f 18 9d 3d 12 47 a9 bb
       -0.1751723 0.08870135 0.07670616 -0.005165943
0001f0 64 90 f8 bc 80 be 92 bd ec 88 d9 bd 9e 2f 22 be
       -0.030342288 -0.07165241 -0.10621819 -0.15838477
000200 f0 f2 4b be 8e 00 2f 3e 84 16 41 be 79 d2 3a be
       -0.19916892 0.17090055 -0.18856245 -0.18244351
000210 4a a2 b6 3d e0 92 52 bd e7 ee 15 3a 12 25 e4 3d
       0.08917673 -0.051409602 0.0005719498 0.11139883
000220 e2 86 b9 bc 64 a9 10 3e 7b 2b 68 be 24 62 8b bd
       -0.022647325 0.14127117 -0.22672836 -0.06805828
000230 6a 37 b6 3d 3c a2 82 bc 19 1f 9e bd 76 fa 56 3d
       0.08897288 -0.0159465 -0.07720775 0.052484952
000240 c7 2f 82 bd bd 90 6c 3d e9 f2 1f bd b1 fc 23 be
       -0.06356769 0.05775522 -0.039050017 -0.16014363
000250 ce 90 0f bd 29 e6 97 be 5e 45 47 bd 88 34 e4 bd
       -0.035050206 -0.29667786 -0.048650138 -0.11142832
000260 0d 6e 45 be 4a 34 af bb 59 9e bf bd 84 d6 27 3e
       -0.19280262 -0.0053468095 -0.09356374 0.16390425
000270 c0 a0 a1 3d 91 4b 8e 3d c4 bc f1 3d 99 3c 8c bc
       0.07891989 0.06948007 0.11803582 -0.017118739
000280 f1 59 51 be 39 2b 4a 3c 81 ba 19 3e 27 1e e0 bd
       -0.20444466 0.012339407 0.15012552 -0.10943251
000290 34 0f 1e be c6 00 8c 3c 11 fc 12 3e a9 15 26 3e
       -0.15435487 0.017090213 0.14353968 0.162192
0002a0 df f0 3b 3e cd 78 00 3e 83 54 33 bd 2b 37 13 be
       0.18353604 0.12546082 -0.04378177 -0.14376514
0002b0 b4 a0 b0 3d 85 77 83 3c 70 69 88 bd 00 42 8f 3d
       0.08624402 0.016048202 -0.066607356 0.069950104
0002c0 c3 fb a2 3c 1e 2e ae 3d 4f eb af 3c 46 bd 04 be
       0.01989544 0.0850489 0.021474509 -0.12962827
0002d0 fe 72 ef bd 4d a1 39 be a1 c7 92 bc 63 bd a8 bc
       -0.11691855 -0.18127938 -0.017917456 -0.02059812
0002e0 c9 f8 12 be 60 21 87 3c 2c 43 87 bd 2a fb c2 bd
       -0.14352717 0.016495407 -0.06604609 -0.09520562
0002f0 ca e1 f5 bd d8 da fb bd 10 1c bb bd 28 39 a1 bd
       -0.120059565 -0.122976005 -0.09136212 -0.0787223
000300 c7 9d db 3d 9e e4 3e bd 24 91 28 be ef 62 ad bc
       0.10723453 -0.046604745 -0.16461617 -0.02116534
000310 d6 46 13 be 60 fa 22 3e 75 a3 ad bc 56 47 2f be
       -0.1438249 0.15915823 -0.021196106 -0.17117056
000320 93 d5 0e bd f6 29 f7 bd 80 8b 7d 3c 37 4e c9 bb
       -0.03487165 -0.1206855 0.015475154 -0.006143357
000330 d2 32 e7 bc fc fc e7 bb 8c 03 11 3d d2 6c 34 3e
       -0.028222475 -0.0070797186 0.035403773 0.17619637
000340 d8 50 5a bc d3 a0 27 be 40 d9 fc bd 8e 66 33 bd
       -0.013324939 -0.16369943 -0.12346125 -0.043798976
000350 d9 23 19 3e f1 b1 ad bd 4f 80 00 be f9 33 80 bb
       0.14955081 -0.08481205 -0.12548946 -0.0039124456
000360 71 00 03 bd 5a dd ae bd 0a 15 0f be 3a 01 a8 3d
       -0.031982843 -0.08538313 -0.1397287 0.08203359
000370 41 a2 bc bd 44 4b e8 3b 55 48 59 bd 89 91 05 3e
       -0.09210635 0.0070890505 -0.053047497 0.13043799
000380 fb e1 68 bd 57 38 03 3d f6 4b b3 bd 04 25 fe 3d
       -0.056856137 0.03203615 -0.08754723 0.12409404
000390 3c 73 63 3d 68 47 86 bd 4d f0 e7 3d b3 2b 12 be
       0.055529818 -0.065565884 0.113251306 -0.14274482
0003a0 77 b5 14 be 17 09 0e 3e e1 20 13 3e a1 74 2a 3e
       -0.14522348 0.13870655 0.14368011 0.16646053
0003b0 d5 05 cf bd 2b 46 47 3d 8c 88 6d bd ca d6 00 3e
       -0.10108534 0.0486509 -0.05799155 0.12581936
0003c0 25 54 21 be 38 6e 52 3e 64 27 17 3e 70 48 06 be
       -0.15754755 0.20549858 0.1476112 -0.1311357
0003d0 08 e8 31 3e d8 b7 c0 bc 48 da d4 bd 6b f7 3c bd
       0.17373669 -0.023525164 -0.10393196 -0.046134394
0003e0 e7 cd 0a 3e 45 4a 86 3d 37 a4 3e 3e b0 86 9e 3d
       0.13555108 0.065571345 0.1861733 0.07740533
0003f0 52 14 e8 3d dd 04 82 3c 7b 43 10 3e 6f 26 37 be
       0.11332001 0.01587146 0.14088242 -0.17885755

linear.bias f4 [15]
000000 6a 87 18 be 0a 64 fd 3d fa e1 97 bd 9c d8 c7 bd
       -0.14895406 0.123725966 -0.074161485 -0.09758112
000010 d0 0c ba 3d 3a 98 95 bd 93 fa 08 3e b2 12 9c 3c
       0.09084475 -0.073044255 0.13376836 0.019051883
000020 1f 1f 34 be c4 e0 56 be 3f 39 2c 3e d9 86 45 3e
       -0.17589997 -0.20984179 0.16818713 0.19289722
000030 ec c1 39 bb fc 59 2a be eb bf c0 3e
       -0.0028344346 -0.16635889 0.37646422

linear2.weight f4 [10, 15]
000000 cf e0 d4 3c 3f 0f 19 be c6 19 11 bd 0b 2e 9c 37
       0.025986103 -0.14947222 -0.03542497 1.861809e-05
000010 f6 30 bc 3c d7 7d be 3d 6b f7 a5 3d 4c bb b5 3d
       0.022972565 0.09301346 0.08103832 0.08873615
000020 be 85 3f be 80 7b 80 3e 12 a9 28 3c a9 c6 fe 3d
       -0.18703362 0.25094223 0.010294216 0.12440235
000030 cf e1 0c be 08 50 f3 bd 77 cf ee 3d 8a 58 67 3e
       -0.13758014 -0.11880499 0.116606645 0.22592369
000040 b2 8d 08 bd db 9d 66 be 3e fd 58 be a9 d9 9d 3d
       -0.033338256 -0.22521155 -0.21190354 0.07707531
000050 6e ba 84 3c 6b a7 72 3d 67 27 35 3e 09 45 e7 3c
       0.016202178 0.059241693 0.17690812 0.02823116
000060 82 95 2b 3d b1 e7 e7 bd 51 6a 4d be b0 02 bc 3d
       0.04189063 -0.113234885 -0.20060088 0.091802
000070 58 9b c0 3c be 4e c1 3c 57 ab 42 3e c1 73 7b 3c
       0.023511574 0.023597118 0.19010673 0.015347422
000080 35 3b c9 3d fe ca a1 3d 15 97 07 3e cc 5a 51 3e
       0.09825746 0.07900046 0.13241227 0.20444793
000090 0c 81 7c be 0a b4 3c be 2b 7d df bc 86 ab 5f 3e
       -0.24658602 -0.18428054 -0.027281364 0.21842775
0000a0 a5 fa 92 be be dc 23 3e e5 b9 28 3d df d4 86 be
       -0.28706852 0.16002175 0.041192908 -0.26334283
0000b0 9d 9d a1 3e 2b b5 fe bd ba 25 63 3e 7f 49 d5 3d
       0.31565562 -0.12436899 0.2218236 0.10414409
0000c0 61 a0 85 be 09 d4 9f bd ab 7a 6c 3d be 19 d6 bd
       -0.26098922 -0.07804114 0.057734173 -0.10454129
0000d0 15 b0 0f bd d4 c8 20 3e a7 a6 76 3d 74 4f 0b be
       -0.035080034 0.1570161 0.060217526 -0.13604528
0000e0 38 a8 ff bc e2 c1 59 3e 9a ee 1a 3e 07 ed 41 3e
       -0.031208143 0.21265367 0.15130082 0.18938075
0000f0 e4 10 04 bc 4d ea 67 be 22 d7 0a 3d 56 6f 39 3e
       -0.008060668 -0.22647972 0.033896573 0.18108878
000100 2f 4f 01 3d 45 27 30 3e 30 d8 d4 bd e9 ff 43 3e
       0.031569656 0.1720248 -0.10392797 0.1914059
000110 92 d2 33 be 6b 76 8c 3e 3b ce fc bd 45 21 7c 3c
       -0.17560795 0.27434096 -0.12344023 0.015388791
000120 0b 49 48 3e 94 b0 c5 bc 9c 0b 86 3e e4 8b 9e 3d
       0.19559114 -0.02413205 0.26180732 0.07741526
000130 f7 f1 85 3d 65 5c b3 bd 00 e8 d9 3e cc c1 29 3e
       0.06540292 -0.08757857 0.42559814 0.16577834
000140 f4 17 47 3e 49 85 7d bc 80 a1 a3 3b 87 8b 01 be
       0.19442731 -0.015473672 0.0049936175 -0.12650882
000150 af dd c6 3e 89 fb ec bd b5 a1 74 3e 55 1a 90 3c
       0.38841006 -0.11571414 0.23889811 0.017590681
000160 8c a9 6b be 72 ec e1 3e 7f 0d f3 3c 61 13 20 be
       -0.23013896 0.44125706 0.029669521 -0.15632392
000170 61 66 f0 bd ff 55 84 be 22 e7 1d 3d 47 4d a9 3c
       -0.11738277 -0.2584686 0.038550504 0.020666732
000180 f7 e0 98 3d 91 1b 78 3e 49 86 49 be 3c b7 b7 bd
       0.07464784 0.24229266 -0.19680132 -0.08970496
000190 c4 e0 ce bd 20 85 0b be ea 34 48 3d 0f 5b 76 be
       -0.101014644 -0.13625002 0.048878588 -0.24058174
0001a0 0a 24 c8 bd 21 6c bd 3c fd f8 c8 3d c1 62 77 3e
       -0.09772499 0.023122849 0.09813116 0.24158765
0001b0 8d 9a 0b bd d1 47 9a 3d 38 b8 d3 3c f5 75 f7 3c
       -0.034082938 0.07533229 0.025844678 0.030207613
0001c0 31 d2 ec bd 73 b3 06 be aa 1a bc ba 95 e5 86 3e
       -0.11563528 -0.13154392 -0.0014351208 0.26347032
0001d0 ab 95 16 bc 87 cc 6c 3e 95 6a 9f bd 7c 88 ea bd
       -0.009190957 0.23124896 -0.07784001 -0.114518136
0001e0 4d 5e a7 3c 1d 78 0c be 26 bf 23 be ee 8b 13 3e
       0.020430708 -0.13717695 -0.15990886 0.14408848
0001f0 e5 b2 15 be 4e f5 8c be f6 10 2f 3e ce dc e4 bd
       -0.14619024 -0.27530903 0.17096314 -0.11174928
000200 7f cc 01 3d 2f 05 31 3e d1 0c 05 3e 09 ff 05 be
       0.031689163 0.17287134 0.1299317 -0.1308557
000210 d6 8a a4 bb bd 96 78 3e 5c 23 5a bd 22 d4 6e bc
       -0.0050214333 0.24276252 -0.053256378 -0.014576944
000220 6b a6 31 3e 4d 80 e3 3e 6e 7e 21 be aa 48 6f be
       0.1734864 0.44433823 -0.15770885 -0.23367563
000230 56 3d 85 3d 9e 71 95 be 3a 3e 4d 3e e1 df 43 3e
       0.065058395 -0.29188246 0.20043269 0.19128372
000240 7f 35 29 3e c5 1e 44 3e 5c 9b 4b 3e de 79 24 bc
       0.16524313 0.19152363 0.19883484 -0.010038821
000250 b2 56 05 be b3 27 04 be
       -0.13021353 -0.12905769

linear2.bias f4 [10]
000000 6a ad 21 bd 84 06 60 be 32 50 07 3e 5d 5a 28 3e
       -0.03947202 -0.21877486 0.13214186 0.16440721
000010 47 4f 74 be 43 ea 95 3e 62 d9 65 3e b7 46 c8 3d
       -0.23858367 0.2928029 0.22446206 0.09779113
000020 6b 63 4b 3e 20 e4 a8 3e
       0.19862144 0.32986546

linear3.weight f4 [1, 10]
000000 3c ee 46 be 01 67 1f 3c be 06 c6 be b4 c8 72 3e
       -0.19426817 0.009729148 -0.3867702 0.23709375
000010 1f b8 97 be 5f 4e 52 bf 3f 61 78 3d 39 f3 a9 3e
       -0.2963266 -0.82150835 0.060639616 0.33193377
000020 3b 7a e7 3d f9 1d 12 3f
       0.113026105 0.57076985
